chatbot/intents/data.pth (torch, 12351 bytes, 6 tensors)

l1.weight f4 [8, 179]
0.27180496 0.09898211 0.5309238 0.87711555 0.8295007 0.69232064 0.36220476 -0.53771627
0.54570764 0.040805824 0.3236493 0.37803456 -0.09655523 0.88110536 0.9454812 0.5382002
0.8602193 0.9191673 0.6974155 -0.16896698 -0.20761 0.64639664 0.4878554 0.3945773
-0.09974895 1.1403867 -0.7143017 0.3049325 0.35186756 -0.4054857 -0.52400005 0.2730787
0.32786927 1.3746684 0.9388547 1.2114745 -1.167962 0.6954343 -0.41489768 0.1843646
0.30269995 -0.18915588 -0.7443829 -0.45882133 -0.28030956 0.4371364 0.90784633 0.83415437
-0.81214577 -1.0614263 -0.026086774 -0.8693481 0.22899659 0.20411743 0.11046974 0.26179704
-0.7451818 1.422842 0.7279072 -0.23890181 0.5982296 -0.71510947 -0.51315224 -0.29927772
0.77508104 0.8206189 -0.71861786 0.9253134 0.90381163 0.90874165 -0.3177631 0.94857115
0.40275323 0.44904104 0.64889646 -0.2499565 0.018593391 0.0076293787 -0.8764795 0.72590584
0.21556911 -0.16464 0.62949735 -0.5690265 -0.07092523 -0.4201441 0.3118826 -0.7160681
0.14924885 0.39189398 0.23572227 -1.0928142 -0.473542 0.82080096 -0.6976599 1.0284134
0.39453033 0.20320906 0.72886246 -0.204697 -0.026687361 0.778562 0.47952682 0.5820969
0.5339599 0.46454236 0.8528291 -0.600649 0.5430048 0.2199917 0.3709155 0.7377566
0.38173082 1.2761645 0.59236026 0.37404767 -0.86772925 -0.50904894 0.12555335 0.6288026
0.22057211 0.29818398 0.5919335 -0.19837569 1.3922501 0.19133529 0.72186 -1.4163728
-0.33015138 -0.71529114 1.4628198 -0.95662034 1.2504685 0.39389002 0.9027354 -0.40190586
0.802479 -0.30862433 0.3752626 0.237278 0.0659816 0.036374997 1.3552731 -0.97416455
1.3397697 0.8465335 0.5759473 1.0314149 0.035800662 0.219102 0.40559056 1.2937423
1.0496825 1.1950028 0.34546262 0.120737605 0.06357973 -0.23881626 -0.7143125 -0.8149152
0.71867037 -0.23061621 -0.050400153 0.31396872 -0.42946675 -0.088407025 0.72292924 -0.07982646
1.8835266 0.010728628 0.64428025 0.032264616 -0.04348093 0.19405347 0.41106075 0.15243164
-0.6289559 0.09454428 0.3623754 0.41416088 -0.45733166 -0.031265367 0.1227668 0.089130126
0.45858705 0.33514923 -0.16645078 1.4324851 0.8176163 0.9880335 -0.17542665 1.7912351
0.5883995 0.88965404 -0.07129448 0.82578725 -0.15042159 -0.0027780063 0.9673315 0.3168866
-0.081420146 -0.1856235 0.27003837 -0.9091327 0.6777876 -0.18881778 0.106768146 2.481435
-0.2534238 -0.29250386 0.70884067 -0.30740166 -0.8315452 -0.6863965 -0.72351986 -0.04886641
0.38010013 -0.27041948 -0.6255284 1.5564046 0.13794261 1.0460113 -0.76624876 0.26848558
-0.18202841 0.1350468 -0.5308665 -0.10599675 0.7702083 -0.6122523 1.624848 0.28956538
-0.8309301 1.1949258 -0.8296808 -0.7120993 -0.83089 0.6109682 0.23974262 1.6391121
-0.20766634 -1.0358042 0.3250836 -0.98786056 2.2473373 -0.28989476 0.9143405 2.337914
2.3943624 1.984457 1.2269356 0.097669 -0.04085081 0.72497195 1.886209 0.1949495
00000000: 052a 8b3e 22b7 ca3d 9fea 073f a58a 603f
00000010: 285a 543f ed3b 313f e772 b93e c6a7 09bf
00000020: 7fb3 0b3f 0224 273d 5cb5 a53e bf8d c13e
00000030: c0be c5bd 1f90 613f 0e0b 723f 7dc7 093f
00000040: 5537 5c3f 8c4e 6b3f d289 323f ae05 2dbe
00000050: b797 54be 407a 253f 2fc8 f93e 0906 ca3e
00000060: 2d49 ccbd 31f8 913f 7adc 36bf 1d20 9c3e
00000070: fc27 b43e d29b cfbe de24 06bf f9d0 8b3e
00000080: 7bde a73e 22f5 af3f c858 703f 9911 9b3f
00000090: c77f 95bf fb07 323f 786d d4be 13ca 3c3e
000000a0: 7dfb 9a3e 14b2 41be e18f 3ebf a1ea eabe
000000b0: bc84 8fbe 58d0 df3e 9e68 683f 248b 553f
000000c0: c9e8 4fbf d1dc 87bf eeb3 d5bc 998d 5ebf
000000d0: 157e 6a3e 2904 513e f63d e23d 430a 863e
000000e0: 3cc4 3ebf b01f b63f 2058 3a3f ada2 74be
000000f0: 9325 193f 6a11 37bf f25d 03bf ee3a 99be
00000100: b66b 463f 1514 523f 57f7 37bf 57e1 6c3f
00000110: 3360 673f 4ba3 683f d8b1 a2be 8fd5 723f
00000120: ac35 ce3e b5e8 e53e 141e 263f 99f4 7fbe
00000130: 2b51 983c deff f93b f660 60bf f7d4 393f
00000140: 26be 5c3e 6397 28be bd26 213f b9ab 11bf
00000150: 3f41 91bd 211d d7be 13af 9f3e 3d50 37bf
00000160: b1d4 183e 54a6 c83e 2e61 713e 56e1 8bbf
00000170: 1974 f2be 0320 523f d799 32bf 0da3 833f
00000180: e1ff c93e 0916 503e bb96 3a3f 179c 51be
00000190: 749f dabc d74f 473f 8a84 f53e 4d04 153f
000001a0: 99b1 083f 7fd8 ed3e 0253 5a3f 22c4 19bf
000001b0: 5d02 0b3f 8145 613e a3e8 bd3e 9edd 3c3f
000001c0: 3972 c33e 5c59 a33f eca4 173f 2d83 bf3e
000001d0: 8123 5ebf 0851 02bf 0f91 003e 35f9 203f
000001e0: a8dd 613e 92ab 983e f488 173f ff22 4bbe
000001f0: 4035 b23f 66ed 433e d1cb 383f b44b b5bf
00000200: 9a09 a9be 521d 37bf ae3d bb3f 12e5 74bf
00000210: 5a0f a03f f4ab c93e ab19 673f 9bc6 cdbe
00000220: 446f 4d3f 0204 9ebe 6b22 c03e 01f9 723e
00000230: 5c21 873d f3fd 143d 9779 ad3f d962 79bf
00000240: 937d ab3f 6bb6 583f 4871 133f 6705 843f
00000250: b7a3 123d 465c 603e 91a9 cf3e 5999 a53f
00000260: ff5b 863f daf5 983f 7ae0 b03e 4745 f73d
00000270: 1736 823d 408c 74be 2fdd 36bf 489e 50bf
00000280: c8fa 373f a826 6cbe 6470 4ebd 82c0 a03e
00000290: 11e3 dbbe be0e b5bd e411 393f 0e7c a3bd
000002a0: 6617 f13f 21c7 2f3c 8def 243f e727 043d
000002b0: 0f19 32bd f4b5 463e 8e76 d23e 0a17 1c3e
000002c0: 4103 21bf 6ea0 c13d 4589 b93e e50c d43e
000002d0: 6027 eabe 1d10 00bd 296d fb3d db89 b63d
000002e0: eccb ea3e ae98 ab3e 1372 2abe ac5b b73f
000002f0: 4d4f 513f c3ef 7c3f 0ba3 33be 3147 e53f
00000300: 5aa1 163f 5ec0 633f d702 92bd cb66 533f
00000310: 1e08 1abe 360f 36bb 0aa3 773f f63e a23e
00000320: 9bbf a6bd 1614 3ebe 7842 8a3e ecbc 68bf
00000330: 7d83 2d3f 7359 41be 42a9 da3d d5cf 1e40
00000340: c4c0 81be 11c3 95be 9576 353f c063 9dbe
00000350: 25e0 54bf aeb7 2fbf 9938 39bf 2528 48bd
00000360: 7c9c c23e 6c74 8abe a122 20bf 4438 c73f
00000370: d440 0d3e b3e3 853f e128 44bf f176 893e
00000380: a865 3abe b549 0a3e dee6 07bf d314 d9bd
00000390: 5f2c 453f 91bc 1cbf 05fb cf3f ea41 943e
000003a0: d6b7 54bf 54f3 983f f665 54bf 244c 36bf
000003b0: 35b5 54bf 6968 1c3f 177f 753e 6dce d13f
000003c0: 7ca6 54be 3b95 84bf 5c71 a63e 6ee4 7cbf
000003d0: 60d4 0f40 166d 94be 3812 6a3f 62a0 1540
000003e0: 3c3d 1940 b002 fe3f 3a0c 9d3f af06 c83d
000003f0: 2e53 27bd c397 393f 4c6f f13f d7a0 473e

l1.bias f4 [8]
0.70310014 0.8125385 0.98835 0.8916736 0.9910798 1.2343748 0.9284262 0.5616877
00000000: 5ffe 333f 8602 503f 8104 7d3f b944 643f
00000010: 68b7 7d3f feff 9d3f 57ad 6d3f c4ca 0f3f

l2.weight f4 [8, 8]
-0.24298523 1.2210059 2.8395965 1.0888515 -1.628796 -0.08280788 1.6255381 1.5355399
1.1808597 -0.7118413 1.3249247 2.0714376 0.1283321 1.4665077 -1.5408392 -0.13915297
0.7944048 -1.6742328 -0.030100938 0.8291659 2.1668184 -0.22277254 0.9702536 -0.016173268
-0.9825106 1.0768392 0.78835744 -1.4932001 1.8712783 2.5107183 1.9542776 -0.9424385
1.2072691 1.7294126 1.3949491 0.71113145 0.5992247 -2.2539518 0.45625445 1.8526256
-0.087632835 -0.10074663 -0.22454908 -0.18089904 0.0683876 -0.034859568 -0.15931879 0.051959097
-1.3031096 -0.4862552 -1.8574622 2.018331 -0.1963439 2.1492105 1.73015 1.7924566
2.0748599 0.33987537 -0.6451848 0.16141278 1.9327323 0.4627063 -0.15112801 -1.3822896
00000000: 1fd1 78be ec49 9c3f f3bb 3540 7c5f 8b3f
00000010: 637c d0bf 2e97 a9bd a211 d03f 928c c43f
00000020: 6926 973f 3b3b 36bf 2297 a93f 6f92 0440
00000030: 7d69 033e 86b6 bb3f 383a c5bf 1e7e 0ebe
00000040: 1d5e 4b3f 434d d6bf 3e96 f6bc 3744 543f
00000050: 27ad 0a40 7c1e 64be 8a62 783f cd7d 84bc
00000060: d185 7bbf ded5 893f cbd1 493f 2e21 bfbf
00000070: 0c86 ef3f 9caf 2040 c525 fa3f a643 71bf
00000080: cb87 9a3f 645d dd3f b18d b23f b60c 363f
00000090: ca66 193f bf40 10c0 2f9a e93e d622 ed3f
000000a0: d878 b3bd 4054 cebd 32f0 65be 993d 39be
000000b0: cc0e 8c3d e8c8 0ebd 7724 23be 10d3 543d
000000c0: 4ccc a6bf 71f6 f8be 52c1 edbf 562c 0140
000000d0: 600e 49be aa8c 0940 8e75 dd3f 386f e53f
000000e0: 81ca 0440 2504 ae3e d52a 25bf 6449 253e
000000f0: c663 f73f d7e7 ec3e 4dc1 1abe deee b0bf

l2.bias f4 [8]
0.5631007 0.8048442 0.43685424 0.80429095 0.43024692 -0.3378625 0.6637449 0.57543993
00000000: 5e27 103f 450a 4e3f 5cab df3e 03e6 4d3f
00000010: 5349 dc3e 50fc acbe 30eb 293f 0850 133f

l3.weight f4 [42, 8]
-0.76012534 0.9863373 -2.0631924 -0.14482689 -2.2953393 -0.080326974 0.33913463 0.45601776
-2.2700598 -1.0384969 1.1333592 0.37197945 -1.4162227 -0.1543703 -2.2971172 0.66061205
-0.082512595 0.98230404 -0.12711267 -3.4726226 -1.026727 0.27530834 0.8407799 -3.1125722
0.321964 -4.1481037 -2.9772568 0.019260213 0.49070984 -0.18594536 -2.1178808 -0.07994132
-0.41995564 0.91298515 0.5207484 -2.698638 -0.27145615 -0.18468563 -2.659011 0.35646975
-2.5930583 1.0037631 0.09934233 -0.84801835 -1.8687987 -0.056438893 -1.8876134 0.96937037
-0.4162373 -4.4088197 -1.0216874 0.10937327 -0.04043473 -0.24335629 0.97092414 -2.039837
-0.7514888 -3.239079 0.3236138 0.08760737 -1.1713436 -0.15086836 0.41412482 -0.17014287
0.3405177 -0.3552426 -0.38591877 -1.1932168 0.007782736 0.0232068 0.14254488 -2.091205
-0.1497065 -2.9270518 -0.8963874 0.60980433 -0.84868073 -0.113438964 -0.4386393 0.0053421645
-2.0428445 0.30116406 0.46804395 0.5326256 -5.060196 -0.049153715 -0.028012922 0.13648432
-0.22706737 -1.0430971 -0.03149791 0.38321638 -6.3039417 0.017228782 0.8592732 -0.711756
-1.0273691 0.17820372 0.6185947 -0.8688812 -2.365055 -0.19537677 1.0007877 -0.92402464
-0.17800947 0.786046 -0.62902516 -0.6065411 -4.1328053 0.22765371 0.9117676 -3.2367356
-0.1302148 -0.3766694 -1.121577 0.22185555 -0.40484706 0.15798655 -0.49034923 -0.5306676
0.12086753 -0.67042124 -0.30359697 0.3830999 -1.8315369 0.19279948 0.4109626 -2.9990695
0.41879547 -0.44799277 -1.988543 -1.6748778 0.86061597 0.34648946 -2.7936058 -0.66385406
0.73563415 -2.15882 -2.879172 -0.11694399 0.49141046 0.16824076 -1.5593135 -3.679029
-4.576758 0.30909 0.5149425 -0.4941224 -1.4559697 0.24826035 0.065375805 0.32227632
0.4897998 -4.9788046 -0.9249572 0.3640404 -2.8156328 -0.25282714 1.2721677 -3.4074087
0.36437032 0.4102219 -3.6630313 0.41037288 -2.160839 0.123357 0.23227146 -2.5103185
0.171219 -3.793447 -0.78659976 -1.1658295 0.6303769 -0.32249597 -0.3887202 -0.12079406
-0.5095727 -1.8732849 0.9543674 -1.4738661 -0.22194362 0.27013925 0.41339833 -0.3649381
-0.9402137 -1.9072579 0.44787967 0.23000182 0.024133742 -0.3113247 -1.4334884 0.2570595
0.36751577 -0.70784515 -1.1318024 -1.9303734 0.36601406 -0.19132827 0.11041833 -1.165331
-2.635328 -0.07120494 -1.4282687 0.82076406 -0.468635 -0.1517987 -1.3605189 1.0188693
-0.1264041 1.1785759 -4.701668 -0.47819182 0.09829953 -0.30842036 -0.6051567 -1.6761245
0.61129266 -4.0856338 -0.12952499 0.25546435 -0.18859306 -0.026682734 -1.7684847 -1.501895
-2.7911386 -2.4415133 0.6661753 0.66312766 -2.7032876 0.14634928 0.09605119 0.37096098
-1.3611193 -0.73247164 0.27339658 -0.18439613 -0.9142862 -0.17931342 0.001993281 0.27030373
-2.3000672 0.040896554 0.71490306 -0.74132377 0.31432202 -0.27954012 -1.5599296 0.22628269
0.00052161596 -0.7623872 -0.79175925 1.0683644 -3.0527816 0.0049507916 -0.9097333 0.32655162
00000000: 9397 42bf 9a80 7c3f 580b 04c0 804d 14be
00000010: d7e6 12c0 7882 a4bd 0ea3 ad3e 297b e93e
00000020: a948 11c0 77ed 84bf ea11 913f 1774 be3e
00000030: c946 b5bf 3f13 1ebe f803 13c0 df1d 293f
00000040: 5dfc a8bd 4778 7b3f d329 02be 733f 5ec0
00000050: ca6b 83bf 37f5 8c3e 5a3d 573f 6234 47c0
00000060: 77d8 a43e 44bd 84c0 608b 3ec0 98c7 9d3c
00000070: 523e fb3e 7668 3ebe 5c8b 07c0 46b8 a3bd
00000080: 6d04 d7be 65b9 693f c44f 053f 7cb6 2cc0
00000090: 4dfc 8abe 3b1e 3dbe 3c2d 2ac0 3483 b63e
000000a0: abf4 25c0 4f7b 803f fe73 cb3d bb17 59bf
000000b0: cc34 efbf 782c 67bd 519d f1bf a828 783f
000000c0: 0e1d d5be 0d15 8dc0 a7c6 82bf 18ff df3d
000000d0: e39e 25bd 6432 79be 7c8e 783f b08c 02c0
000000e0: 9261 40bf 124d 4fc0 b5b0 a53e 7e6b b33d
000000f0: 96ee 95bf 3c7d 1abe 2b08 d43e ef39 2ebe
00000100: 5658 ae3e 5ce2 b5be 2597 c5be 54bb 98bf
00000110: 5206 ff3b 301c be3c 49f7 113e 4dd6 05c0
00000120: a94c 19be d154 3bc0 a579 65bf 231c 1c3f
00000130: 2443 59bf b052 e8bd 5595 e0be 530d af3b
00000140: f7bd 02c0 2d32 9a3e 75a3 ef3e 275a 083f
00000150: 20ed a1c0 6855 49bd 5b7b e5bc 8cc2 0b3e
00000160: 5984 68be 3584 85bf f403 01bd f034 c43e
00000170: e4b9 c9c0 6023 8d3c 54f9 5b3f a435 36bf
00000180: d580 83bf 097b 363e 395c 1e3f 006f 5ebf
00000190: 105d 17c0 d910 48be d019 803f e18c 6cbf
000001a0: 1d48 36be 503a 493f cb07 21bf 4746 1bbf
000001b0: f13f 84c0 0e1e 693e 9a69 693f ad26 4fc0
000001c0: 0757 05be d0da c0be d68f 8fbf 1a2e 633e
000001d0: 1d48 cfbe 3ac7 213e 0e0f fbbe d5d9 07bf
000001e0: 6589 f73d baa0 2bbf 1071 9bbe ac25 c43e
000001f0: cd6f eabf 3a6d 453e b169 d23e c1f0 3fc0
00000200: 5c6c d63e 4f5f e5be 9488 febf 6562 d6bf
00000210: 5451 5c3f 1167 b13e 70ca 32c0 57f2 29bf
00000220: 8552 3c3f 1b2a 0ac0 5b44 38c0 5580 efbd
00000230: 279a fb3e 4e47 2c3e 9697 c7bf 3675 6bc0
00000240: cd74 92c0 0b41 9e3e 46d3 033f 9cfd fcbe
00000250: 375d babf f637 7e3e c0e3 853d 6701 a53e
00000260: 0ac7 fa3e 5e52 9fc0 ffc9 6cbf 8163 ba3e
00000270: 5433 34c0 8f72 81be 64d6 a23f fc12 5ac0
00000280: bf8e ba3e 9b08 d23e 1b6f 6ac0 651c d23e
00000290: 304b 0ac0 98a2 fc3d 92d8 6d3e 0fa9 20c0
000002a0: 0954 2f3e d6c7 72c0 9a5e 49bf e739 95bf
000002b0: 6160 213f 311e a5be 5606 c7be e062 f7bd
000002c0: 5b73 02bf cdc7 efbf 6c51 743f a5a7 bcbf
000002d0: 3045 63be b14f 8a3e f2a8 d33e 2bd9 babe
000002e0: d8b1 70bf 0721 f4bf 7c50 e53e 9985 6b3e
000002f0: 20b4 c53c f365 9fbe 8c7c b7bf 4e9d 833e
00000300: 072b bc3e 5735 35bf e7de 90bf 7a16 f7bf
00000310: 3266 bb3e 8feb 43be 0123 e23d 9129 95bf
00000320: 37a9 28c0 e5d3 91bd 82d1 b6bf 981d 523f
00000330: edf0 efbe 1e71 1bbe 7c25 aebf 4f6a 823f
00000340: 1470 01be 93db 963f 1074 96c0 8fd5 f4be
00000350: 4451 c93d 46e9 9dbe 8deb 1abf 3f8b d6bf
00000360: ad7d 1c3f 83bd 82c0 33a2 04be 39cc 823e
00000370: 8a1e 41be c095 dabc b55d e2bf 183e c0bf
00000380: 04a2 32c0 c141 1cc0 778a 2a3f bcc2 293f
00000390: aa02 2dc0 96dc 153e 7cb6 c43d 99ee bd3e
000003a0: 2839 aebf 4383 3bbf a3fa 8b3e 57d2 3cbe
000003b0: a90e 6abf f09d 37be b5a1 023b 4065 8a3e
000003c0: 4d34 13c0 2583 273d e303 373f 65c7 3dbf
000003d0: d1ee a03e e21f 8fbe c6ab c7bf a6b6 673e
000003e0: 0ebd 083a cf2b 43bf bcb0 4abf 2ac0 883f
000003f0: c660 43c0 403a a23b 48e4 68bf c631 a73e

l3.bias f4 [42]
0.44916004 -0.08908796 -0.1822321 -0.023930866 0.11740605 0.1951571 -0.12061914 -0.85267407
-0.10856175 -0.77192104 -0.05783566 -0.005409483 -0.54222417 -0.20412418 -0.3519001 -0.72167623
0.30674323 0.43450844 -0.11346962 0.31857952 -0.04829398 -0.022031555 0.25313896 0.023245635
0.033253267 0.46139604 0.052686926 -0.15939501 0.22867009 -0.60677767 -0.45876426 0.077949025
0.5651957 -0.06617408 -0.16898729 0.43651903 0.11333598 -0.35060146 0.40925542 0.51291347
0.018173967 0.03605417
00000000: 4ef8 e53e c073 b6bd 0d9b 3abe aa0a c4bc
00000010: 9572 f03d 43d7 473e 2b07 f7bd d948 5abf
00000020: 9f55 debd 9e9c 45bf 16e5 6cbd 0842 b1bb
00000030: 34cf 0abf ee05 51be 402c b4be c6bf 38bf
00000040: 730d 9d3e e477 de3e c362 e8bd db1c a33e
00000050: e9cf 45bd 857b b4bc 6e9b 813e a16d be3c
00000060: 9434 083d 1a3c ec3e 3fce 573d 7238 23be
00000070: 7e28 6a3e c855 1bbf 26e3 eabe bda3 9f3d
00000080: aab0 103f 4786 87bd 010b 2dbe 6c7f df3e
00000090: b21c e83d 0982 b3be ed89 d13e 4c4e 033f
000000a0: 92e1 943c 8aad 133d
